test/BaselineOutput/Common/Onnx/Cluster/BreastCancer/Kmeans.onnx (onnx, 867 bytes, 2 tensors)

C f4 [2, 9]
0.6232001 0.48240072 0.49573353 0.41653362 0.42586637 0.5456011 0.47733328 0.4338674
0.20399937 0.22540712 0.111400835 0.10944648 0.120521255 0.19869739 0.12182417 0.18241017
0.10814358 0.10716639
00000000: 0b8a 1f3f 3afd f63e c9d0 fd3e e543 d53e
00000010: 280b da3e 84ac 0b3f 0765 f43e de23 de3e
00000020: 36e5 503e 20d1 663e 1f26 e43d 7a25 e03d
00000030: d9d3 f63d 5477 4b3e f37e f93d bbc9 3a3e
00000040: 627a dd3d 0d7a db3d

C2 f4 [2]
1.9770873 0.20049734
00000000: 3211 fd3f 2d4f 4d3e
